data.pth (torch, 33834 bytes, 6 tensors)

l1.weight f4 [8, 465]
1.4460025 1.1178797 0.82774067 0.00095710496 -0.67006487 -1.6107405 -1.6623746 1.4888409
0.05015775 -0.07899993 -0.100954704 0.9511264 1.6775557 2.9116077 0.0019248506 3.3260446
-0.28454876 -0.3847357 -0.5227654 -2.598533 -0.028896721 0.93552405 2.4473677 0.39475185
2.2284586 -0.78120846 -1.0094845 -0.97066873 -0.58022237 4.0585904 0.111326665 2.671636
0.65172297 -0.83552176 0.7423372 2.9846604 -0.9083184 1.1211513 0.9708181 0.099307165
2.7744873 2.4727356 -0.9186218 1.6613299 2.0894072 -1.3098491 1.5700688 -0.49910772
1.5015064 -0.12973319 -0.7914804 -1.16233 0.54857975 1.2971088 3.5811214 1.3739367
0.54018 3.862226 2.0466902 0.52340776 -1.1179235 0.98306316 -1.6385801 -2.4577074
-3.953217 -1.4696298 -0.2480386 1.0313894 3.067173 -0.071073934 -0.47428402 0.81285876
-1.301238 -1.478335 0.07700043 0.14222369 -0.8772593 -1.3892057 0.36563814 0.9576676
1.368686 2.0136929 0.08869789 -1.9127762 1.591134 0.1368291 -0.00082697556 3.165803
4.4507484 1.1927656 -1.0835797 0.37040305 -1.4805416 1.8059288 1.5992843 1.1401962
-1.8661425 -0.34189454 0.49249387 -0.4452862 2.3321314 -1.3761224 0.72916234 0.41114488
3.2880354 1.4428879 1.8614336 -0.3645647 2.972333 -0.7778875 2.620278 0.124738984
0.07711097 2.5841641 -1.2436203 0.16965756 0.0160685 -0.2601391 -0.3371119 2.9853642
0.8744214 0.53847986 -0.08655328 1.3307024 0.09425426 -0.7743302 2.3767498 1.1061109
1.4907588 1.9729247 1.8687968 -0.056791633 2.6121876 4.172986 1.0663656 -0.4514821
-0.6438901 1.5806211 0.8683385 -2.3885634 1.5799671 -0.32997677 0.7800777 0.8976496
-0.84098756 0.5059405 -1.102988 2.0144374 2.6783128 -3.9892645 2.3148868 -1.1595813
-1.3174586 5.4131722 2.0011928 0.69928813 1.8395838 2.297781 -1.3971114 0.5520489
2.386686 1.3864526 1.2051865 -0.44936326 4.40885 -0.19941208 -1.3324796 -1.3229643
-1.1119337 -1.3343788 -1.3335482 0.49217993 0.227636 -1.3306103 -1.3284787 -0.22361848
0.39994323 1.3734382 0.31220135 -0.5853521 -0.06279588 0.90491295 4.5509353 -3.4144855
-0.69091356 1.1311632 1.9699999 3.0597131 -0.3312882 0.44246924 -2.011425 1.5064318
1.8153368 1.4712135 0.063489154 -0.29957858 -0.20915347 0.29997608 -2.1605208 2.2250001
-0.016770773 0.4281516 0.69910824 1.6526783 -0.050400574 2.9461892 2.322437 -2.1649318
0.045620125 1.8219652 -0.65569204 0.56905305 -0.43333173 -1.2526245 -0.21065775 2.0449464
1.3124616 0.6005464 -0.53850543 -0.36562964 2.975422 2.5516586 0.3829459 -0.9099355
0.78824735 0.7995107 2.8823135 1.227081 0.672227 -0.70873725 2.9892218 -0.59502995
-2.0698528 1.9884312 -0.69348013 -0.8663021 0.114485934 0.71378946 -1.5549093 2.454475
1.0356898 2.3459592 3.3482492 1.086937 0.40570778 -0.7209104 0.58308613 -0.28248337
1.9697356 0.8332321 1.8430645 1.4890232 3.727803 0.30328345 -0.22434181 1.4820951
00000000: 9c16 b93f af16 8f3f d0e6 533f 3ae6 7a3a
00000010: 5f89 2bbf bf2c cebf b1c8 d4bf 5792 be3f
00000020: 3672 4d3d b7ca a1bd 57c1 cebd 057d 733f
00000030: 25ba d63f c857 3a40 454b fc3a eadd 5440
00000040: 60b0 91be 14fc c4be f4d3 05bf 5d4e 26c0
00000050: d1b8 ecbc 817e 6f3f aca1 1c40 ea1c ca3e
00000060: 119f 0e40 47fd 47bf ca36 81bf bf7d 78bf
00000070: 7489 14bf f9df 8140 3cff e33d 16fc 2a40
00000080: 51d7 263f c1e4 55bf d009 3e3f ad04 3f40
00000090: 8e87 68bf e381 8f3f 8987 783f 8e61 cb3d
000000a0: 3391 3140 4d41 1e40 cc2a 6bbf 75a6 d43f
000000b0: d9b8 0540 23a9 a7bf 04f8 c83f 0c8b ffbe
000000c0: 5d31 c03f c7d8 04be 769e 4abf 3bc7 94bf
000000d0: b96f 0c3f a907 a63f 1831 6540 28dd af3f
000000e0: 3d49 0a3f b62e 7740 f9fc 0240 0dfe 053f
000000f0: 1e18 8fbf 07aa 7b3f febc d1bf 144b 1dc0
00000100: 8201 7dc0 d41c bcbf d5fd 7dbe 9104 843f
00000110: 904c 4440 368f 91bd 5bd5 f2be 8317 503f
00000120: f78e a6bf 153a bdbf 67b2 9d3d 16a3 113e
00000130: 1194 60bf 7ed1 b1bf ec34 bb3e b429 753f
00000140: 1a31 af3f 58e0 0040 3da7 b53d dad5 f4bf
00000150: 47aa cb3f ed1c 0c3e 64c9 58ba 849c 4a40
00000160: 886c 8e40 8bac 983f bdb2 8abf 78a5 bd3e
00000170: 6382 bdbf ad28 e73f 59b5 cc3f f3f1 913f
00000180: c2dd eebf cd0c afbe 2828 fc3e 8efc e3be
00000190: a441 1540 c724 b0bf 62aa 3a3f 9581 d23e
000001a0: 2c6f 5240 8db0 b83f 7543 ee3f 39a8 babe
000001b0: b43a 3e40 a323 47bf a2b2 2740 2777 ff3d
000001c0: 5bec 9d3d f262 2540 f32e 9fbf b6ba 2d3e
000001d0: 16a2 833c f430 85be ee99 acbe 3510 3f40
000001e0: 15da 5f3f d1d9 093f d942 b1bd 7554 aa3f
000001f0: 6108 c13d 813a 46bf ab1c 1840 0b95 8d3f
00000200: 2fd1 be3f cc88 fc3f bc34 ef3f 589e 68bd
00000210: 152e 2740 1a89 8540 ab7e 883f a928 e7be
00000220: fbd5 24bf cb51 ca3f 6f4b 5e3f 39de 18c0
00000230: 5d3c ca3f b7f2 a8be 2cb3 473f 5dcc 653f
00000240: f64a 57bf 5185 013f b62e 8dbf 8bec 0040
00000250: 7a69 2b40 1c50 7fc0 1b27 1440 296d 94bf
00000260: 7ca2 a8bf b538 ad40 8b13 0040 8c04 333f
00000270: 7b77 eb3f d80e 1340 8cd4 b2bf 1453 0d3f
00000280: 77bf 1840 4777 b13f 8d43 9a3f f112 e6be
00000290: 4d15 8d40 ae32 4cbe b18e aabf e556 a9bf
000002a0: d853 8ebf edcc aabf b5b1 aabf 02ff fb3e
000002b0: 6919 693e 7051 aabf 970b aabf 3efc 64be
000002c0: 5cc5 cc3e d3cc af3f dbd8 9f3e a3d9 15bf
000002d0: 209b 80bd 60a8 673f 43a1 9140 ee86 5ac0
000002e0: b6df 30bf f5c9 903f f528 fc3f 57d2 4340
000002f0: 9b9e a9be 548b e23e 30bb 00c0 c2d2 c03f
00000300: f55c e83f b950 bc3f 9a06 823d 5d62 99be
00000310: 542c 56be 7796 993e f945 0ac0 6766 0e40
00000320: dc62 89bc b036 db3e c2f8 323f f68a d33f
00000330: d570 4ebd 5d8e 3c40 cfa2 1440 3e8e 0ac0
00000340: 2bdc 3a3d 2836 e93f 6fdb 27bf 76ad 113f
00000350: a8dd ddbe 0056 a0bf aab6 57be 67e0 0240
00000360: befe a73f 69bd 193f 7edb 09bf cf33 bbbe
00000370: 506d 3e40 604e 2340 7c11 c43e 88f1 68bf
00000380: 94ca 493f bcac 4c3f d377 3840 fd10 9d3f
00000390: 1217 2c3f ce6f 35bf 694f 3f40 e253 18bf
000003a0: 7878 04c0 ea84 fe3f ea87 31bf f9c5 5dbf
000003b0: 9a77 ea3d e8ba 363f 4507 c7bf 1e16 1d40
000003c0: 7c91 843f 3224 1640 b749 5640 c020 8b3f
000003d0: eeb8 cf3e 958d 38bf 2245 153f a9a1 90be
000003e0: 4c20 fc3f b34e 553f 8ae9 eb3f 5098 be3f
000003f0: 5394 6e40 f847 9b3e dcb9 65be 4bb5 bd3f

l1.bias f4 [8]
1.1071119 0.6527243 0.80434805 1.159159 0.9338593 0.9373385 1.0729935 0.76139444
00000000: d8b5 8d3f f118 273f c1e9 4d3f 525f 943f
00000010: 6711 6f3f 6af5 6f3f da57 893f bfea 423f

l2.weight f4 [8, 8]
2.49338 2.9655972 -1.1558506 -1.1229787 1.2281646 0.12805836 0.91820234 -3.1558864
-1.3389164 1.664602 0.68481255 -1.2467748 -0.74900913 1.4721826 2.4168928 -0.113461204
-1.4335741 1.2034954 -0.6430932 1.1122168 1.9948552 -0.70243603 -0.139374 1.1108962
-0.29881966 0.6013207 -3.0519762 1.8863231 0.19789386 1.8793737 0.22501974 -0.9483685
2.8493772 -1.8475686 2.6035786 3.4799514 -0.5226829 2.1347802 -0.0720846 -0.2411466
-0.9709047 0.27457398 -0.9055545 -2.0343523 1.1103959 2.2021425 0.50362736 2.1140811
-0.4213879 -0.5059815 -1.87123 2.0433123 0.59259796 -2.314796 1.8978999 2.6852713
-1.5800847 -2.622648 -0.38738656 1.1734885 2.7815866 1.2386366 1.9286826 -1.6942195
00000000: 8a93 1f40 58cc 3d40 eaf2 93bf c4bd 8fbf
00000010: 7f34 9d3f bb21 033e 4f0f 6b3f 0bfa 49c0
00000020: 9d61 abbf ae11 d53f e04f 2f3f 5196 9fbf
00000030: 10bf 3fbf 7b70 bc3f 5fae 1a40 595e e8bd
00000040: 5b7f b7bf 230c 9a3f c2a1 24bf 1f5d 8e3f
00000050: 6a57 ff3f d9d2 33bf 0fb8 0ebe d931 8e3f
00000060: e4fe 98be 27f0 193f 9453 43c0 0973 f13f
00000070: b0a4 4a3e 518f f03f 936b 663e 47c8 72bf
00000080: 325c 3640 217d ecbf 08a1 2640 86b7 5e40
00000090: 8cce 05bf 3da0 0840 17a1 93bd 22ef 76be
000000a0: 368d 78bf f694 8c3e 6bd2 67bf d432 02c0
000000b0: 7421 8e3f e7ef 0c40 b9ed 003f 1b4d 0740
000000c0: 28c0 d7be 0188 01bf 7784 efbf a1c5 0240
000000d0: 80b4 173f 9e25 14c0 62ee f23f 7cdb 2b40
000000e0: 3740 cabf 77d9 27c0 8857 c6be df34 963f
000000f0: 8405 3240 a58b 9e3f 12df f63f 2fdc d8bf

l2.bias f4 [8]
0.4103885 -0.25204068 -0.5191009 -0.0017763202 0.97024345 0.18902014 0.53376424 0.72329974
00000000: 711e d23e 7a0b 81be cce3 04bf 6ad3 e8ba
00000010: e061 783f 7f8e 413e c6a4 083f 2c2a 393f

l3.weight f4 [164, 8]
-6.364828 1.6634594 -5.959601 -8.453853 -0.18664354 -4.057193 1.6214192 -3.8657389
-1.7707957 1.1563871 -4.0755253 -5.0278273 -0.26707703 -5.0844374 -5.4281287 -2.1302686
-8.120071 1.9014009 -7.198613 -5.015019 -0.4166221 -1.9300656 -3.3733766 -2.7063239
-1.5862737 0.88925225 -3.1075969 -4.150472 -1.3024957 1.1227665 -4.7072334 -4.309798
-5.4792275 1.4692304 -0.050298937 -1.8257532 -0.9720263 -5.1481075 0.6854672 -3.9056046
-2.5077367 1.1122273 0.16682759 -3.750668 -1.3248479 -3.1312914 0.10216671 -3.9178329
-5.33222 -1.1609142 -4.3452625 -4.179263 0.0639701 -0.11569167 -6.1381187 -5.8208656
-3.913501 0.17679772 -3.9415562 -1.9650685 -1.6685973 0.7032883 1.1972592 -3.3905003
-4.0840344 1.840549 -5.386679 -1.5424136 -1.0789226 0.15802814 -4.007976 -4.522103
-7.365772 -4.051268 -1.7796648 -5.9358616 0.2124239 -1.1543089 0.25682947 -6.517286
-0.17560107 -2.5010028 -7.583306 -6.1144185 -0.11730431 -7.1931443 0.85556376 -4.6236377
-1.0705992 -1.5212178 -7.24032 -6.5838685 -1.5774763 1.6539491 1.7443475 -1.5910232
-1.0117909 1.061986 -7.7461367 -4.865715 -0.21371633 -7.5238566 -5.136785 -5.6473684
-0.5542309 -1.8005916 -5.056198 -9.884476 -0.6841011 1.847217 0.87808466 -8.679444
-0.6906596 0.9487892 -7.538469 -2.7981107 -2.0970085 -8.681713 -0.7870879 -6.167223
0.028073328 -0.64333445 -8.709641 -8.110601 -0.0702476 -6.5841374 -1.3588196 -6.1464005
0.26187444 -2.4956534 -9.387343 -10.225841 0.09383309 -2.9115207 -1.7539865 -5.9147124
-2.2399487 0.4681868 -2.664801 -4.592071 -1.2035125 0.78154427 -0.09625066 -4.913048
-3.0220687 -3.6608171 -4.3245487 -3.6121185 -0.7104821 -1.010704 1.9297974 -4.296914
-4.742944 1.8807707 -1.3596379 -3.681836 -1.6978477 -1.3620217 0.31083414 -5.184334
0.18136077 -0.34310964 -0.8781983 -8.225963 -0.38025668 -6.458382 -9.200347 -1.2487544
-1.1207056 -0.13176638 0.41438228 -4.0599537 -0.087584205 -6.3843737 -3.438843 -7.382026
-1.0536088 0.20072488 0.40867138 -5.2089987 -1.9525222 1.0167624 -5.774798 -3.8744812
0.62359905 -0.0368182 -6.620833 -4.599217 -1.7034655 -7.820023 -7.7326202 -3.561711
-1.1404803 -0.72735286 1.1154108 -7.6167564 -0.3994682 0.11901259 -4.4399657 -6.2457976
-1.7053812 -8.063938 -4.529882 -2.5527563 0.23924813 -1.8262221 -6.2006755 -4.2137756
1.2364779 -2.2429109 -2.640232 -5.130694 -1.7765718 -8.9048 -4.292436 -6.996441
-1.0222291 -5.682748 -0.66634834 -8.539894 0.14719433 -0.8766542 -1.3068489 -6.637656
0.3418284 -2.153135 -6.6644425 -3.968861 -0.020955402 -7.73133 -7.9266577 -4.231505
-0.7446972 0.8419483 -7.139011 -6.275955 -0.9190317 0.69569176 -7.002028 -5.7629375
0.3355618 -0.621525 -0.47500658 -5.272832 -1.0647668 -0.7626307 0.1669068 0.19309403
0.00685554 -0.89976263 -0.6469743 -0.49197844 -8.021232 -0.7887522 -2.696036 0.6085536
00000000: acac cbc0 3dec d43f 0db5 bec0 fb42 07c1
00000010: 7c1f 3fbe 86d4 81c0 aa8a cf3f 4468 77c0
00000020: 6fa9 e2bf 7e04 943f b46a 82c0 f6e3 a0c0
00000030: 52be 88be b6b3 a2c0 3bb3 adc0 5256 08c0
00000040: d0eb 01c1 1b61 f33f 0a5b e6c0 097b a0c0
00000050: 7e4f d5be 640c f7bf 67e5 57c0 6934 2dc0
00000060: 040b cbbf 09a6 633f dee2 46c0 abd0 84c0
00000070: 2eb8 a6bf d0b6 8f3f a8a1 96c0 dde9 89c0
00000080: d555 afc0 be0f bc3f 4206 4ebd 48b2 e9bf
00000090: b7d6 78bf 4cbd a4c0 c77a 2f3f 6df5 79c0
000000a0: c27e 20c0 775d 8e3f dad4 2a3e f20a 70c0
000000b0: 9e94 a9bf 1467 48c0 c83c d13d c6bd 7ac0
000000c0: 8ca1 aac0 d698 94bf 640c 8bc0 86bc 85c0
000000d0: c102 833d c1ef ecbd 786b c4c0 8844 bac0
000000e0: cd76 7ac0 760a 353e 7542 7cc0 5d87 fbbf
000000f0: 9994 d5bf b40a 343f ca3f 993f f5fd 58c0
00000100: 69b0 82c0 1c97 eb3f ad5f acc0 cf6d c5bf
00000110: 231a 8abf 21d2 213e 5741 80c0 11b5 90c0
00000120: 67b4 ebc0 fda3 81c0 0ecc e3bf 94f2 bdc0
00000130: a785 593e 65c0 93bf 277f 833e 9b8d d0c0
00000140: c4d0 33be 6e10 20c0 71aa f2c0 51a9 c3c0
00000150: 3e3d f0bd 3d2e e6c0 3a06 5b3f d7f4 93c0
00000160: 6509 89bf 44b7 c2bf b4b0 e7c0 0daf d2c0
00000170: beea c9bf 9bb4 d33f c746 df3f a6a6 cbbf
00000180: 5d82 81bf 28ef 873f 5ae0 f7c0 f0b3 9bc0
00000190: 74d8 5abe 6fc3 f0c0 8b60 a4c0 3eb7 b4c0
000001a0: 14e2 0dbf c979 e6bf 60cc a1c0 d026 1ec1
000001b0: 4021 2fbf 9b71 ec3f 28ca 603f 01df 0ac1
000001c0: 11cf 30bf d9e3 723f 233b f1c0 3f14 33c0
000001d0: 6335 06c0 4ce8 0ac1 987e 49bf e459 c5c0
000001e0: 09fa e53c 91b1 24bf b15a 0bc1 06c5 01c1
000001f0: f9dd 8fbd 41b1 d2c0 cded adbf 50af c4c0
00000200: 6814 863e c9b8 1fc0 8f32 16c1 0b9d 23c1
00000210: 902b c03d 5b56 3ac0 a182 e0bf 5345 bdc0
00000220: 525b 0fc0 2eb6 ef3e 198c 2ac0 3ff2 92c0
00000230: b30c 9abf 4913 483f 111f c5bd b037 9dc0
00000240: 9369 41c0 d44a 6ac0 b462 8ac0 f32c 67c0
00000250: 28e2 35bf c05e 81bf 9a03 f73f 5280 89c0
00000260: 32c6 97c0 18bd f03f 9d08 aebf 33a3 6bc0
00000270: 1353 d9bf ba56 aebf a725 9f3e 10e6 a5c0
00000280: a3b6 393e 11ac afbe 9bd1 60bf 8b9d 03c1
00000290: 01b1 c2be 11ab cec0 9f34 13c1 2fd7 9fbf
000002a0: 4873 8fbf c4ed 06be ea29 d43e 24eb 81c0
000002b0: 595f b3bd ca4c ccc0 0116 5cc0 8f39 ecc0
000002c0: a7dc 86bf d38a 4d3e 603d d13e 1eb0 a6c0
000002d0: 3fec f9bf 4525 823f 25cb b8c0 80f7 77c0
000002e0: 30a4 1f3f aece 16bd dddd d3c0 c92c 93c0
000002f0: 280b dabf a13d fac0 a071 f7c0 13f3 63c0
00000300: 42fb 91bf cc33 3abf c8c5 8e3f 78bc f3c0
00000310: 1987 ccbe dfbc f33d 3314 8ec0 93dd c7c0
00000320: ee49 dabf e405 01c1 cbf4 90c0 5c60 23c0
00000330: 76fd 743e a5c1 e9bf ef6b c6c0 40d7 86c0
00000340: e844 9e3f da8b 0fc0 90f9 28c0 a52e a4c0
00000350: b466 e3bf 107a 0ec1 a35b 89c0 d8e2 dfc0
00000360: 67d8 82bf 12d9 b5c0 ce95 2abf 68a3 08c1
00000370: 1cba 163e 696c 60bf d346 a7bf ae67 d4c0
00000380: 2204 af3e f7cc 09c0 1d43 d5c0 d201 7ec0
00000390: aaaa abbc 0e67 f7c0 2ea7 fdc0 7d68 87c0
000003a0: 7aa4 3ebf ec89 573f c772 e4c0 a0d4 c8c0
000003b0: a945 6bbf db18 323f 9d10 e0c0 fc69 b8c0
000003c0: c2ce ab3e 431c 1fbf 1034 f3be 0abb a8c0
000003d0: 474a 88bf c43b 43bf 9ee9 2a3e 71ba 453e
000003e0: 70a4 e03b d856 66bf 1ca0 25bf 99e4 fbbe
000003f0: f756 00c1 aaeb 49bf db8b 2cc0 2bca 1b3f

l3.bias f4 [164]
-0.6684069 -1.5779728 -1.6994147 -1.2702531 -0.86366266 -1.1327927 -1.325506 0.3188078
0.14942512 -1.853893 -1.7877563 -1.7588483 -2.0552366 -2.75633 -3.407178 -3.7610662
-2.4105952 -1.292884 -0.25237814 -0.40545547 -1.7733678 -3.5865324 -1.9606309 -2.7294931
-1.9039567 -3.294073 -2.7610624 -2.9501638 -2.8319569 -3.4746544 -0.011397767 0.3981407
-0.029967288 0.61167514 -0.6221753 0.5145897 -3.9488995 -3.6772034 -2.4251165 -2.810011
-1.0803162 0.16511883 -0.9093614 -0.5606418 -1.3457423 -2.3626516 -1.2405617 -2.5087116
-1.5595002 -1.4713328 -4.5824842 -2.9283946 -2.8923695 -1.2076226 -0.34115222 -7.026094
0.10686462 -0.10535873 -0.39287156 -0.45047954 -2.5064101 -3.3460677 -0.5289414 -0.97335064
-1.8496467 -2.6549327 -2.2853825 -1.6351705 -2.0579388 -0.91348946 -3.7902853 -3.819069
-2.4773595 -1.2856735 -1.0919018 -0.8522344 0.083919056 0.13317168 -1.2529829 -3.0243168
-1.0182616 0.19225608 -1.6607488 -1.8693614 -1.9750549 -0.05987262 -1.513969 -0.9563764
-0.6610026 -2.8748546 -3.9495254 -4.6221194 -3.7105021 -3.5203638 -1.1338575 -3.5994532
-2.77705 -1.2178166 -1.7213631 -2.5346344 -3.408415 -1.0166513 -2.790014 -1.366302
-0.23050405 -0.17189017 -2.9784348 -3.0252082 -1.5435494 -4.37327 -0.3235016 -5.1713223
-2.0464284 -1.5436546 -0.23370586 -0.18471913 -1.1015157 -1.8602725 -2.3656938 -3.9029257
-0.34858698 -2.637232 -2.9204352 -1.2099183 -3.8159297 -2.523926 -2.9163864 -2.099718
-0.006945347 -3.1078525 -1.5755233 -3.2947152 -0.2077542 -2.988251 -2.9897113 -2.0448122
-2.913444 0.9200826 -3.8305829 -0.19862068 0.6445791 -1.7100894 -1.6641773 -0.89906645
1.7907866 -2.3841581 -0.63956225 -1.4494747 -2.4280622 -3.2994485 -2.9667325 -0.965422
0.034714844 -1.4369932 -0.12464569 -2.9820533 -1.6470456 0.04753899 -4.5704474 -3.9137607
-4.1621013 -2.2305825 -1.9953686 -1.8124616
00000000: b71c 2bbf 03fb c9bf 6c86 d9bf a797 a2bf
00000010: ff18 5dbf 5aff 90bf 2eaa a9bf c73a a33e
00000020: e602 193e 5e4c edbf 33d5 e4bf f121 e1bf
00000030: ff88 03c0 b667 30c0 340f 5ac0 4fb5 70c0
00000040: 3147 1ac0 397d a5bf b537 81be dc97 cfbe
00000050: b7fd e2bf bf89 65c0 f4f5 fabf 04b0 2ec0
00000060: dab4 f3bf 18d2 52c0 3fb5 30c0 7ccf 3cc0
00000070: c83e 35c0 bd60 5ec0 b3bd 3abc 19d9 cb3e
00000080: f57d f5bc be96 1c3f e146 1fbf 27bc 033f
00000090: c5ba 7cc0 4d57 6bc0 1c35 1bc0 38d7 33c0
000000a0: cd47 8abf e914 293e e9cb 68bf 3986 0fbf
000000b0: 4941 acbf af35 17c0 baca 9ebf bb8e 20c0
000000c0: b49d c7bf a254 bcbf b6a3 92c0 d16a 3bc0
000000d0: 951c 39c0 6193 9abf 81ab aebe c3d5 e0c0
000000e0: d6db da3d 51c6 d7bd 7626 c9be 41a5 e6be
000000f0: 0669 20c0 f925 56c0 b468 07bf 822d 79bf
00000100: 39c1 ecbf 6bea 29c0 b543 12c0 444d d1bf
00000110: 45b5 03c0 72da 69bf 0994 72c0 a06b 74c0
00000120: 0f8d 1ec0 f390 a4bf 70c3 8bbf 092c 5abf
00000130: c1dd ab3d 285e 083e be61 a0bf 688e 41c0
00000140: 6556 82bf c7de 443e 6b93 d4bf 3c47 efbf
00000150: 99ce fcbf fe3c 75bd bcc9 c1bf 15d5 74bf
00000160: 7737 29bf 9efd 37c0 06c5 7cc0 67e8 93c0
00000170: de78 6dc0 a44d 61c0 3e22 91bf 715d 66c0
00000180: 30bb 31c0 6ae1 9bbf a055 dcbf 7337 22c0
00000190: 7923 5ac0 a121 82bf 978f 32c0 fce2 aebf
000001a0: 4109 6cbe fa03 30be ad9e 3ec0 039d 41c0
000001b0: 0793 c5bf d4f1 8bc0 00a2 a5be 797b a5c0
000001c0: aff8 02c0 7996 c5bf 9750 6fbe 0327 3dbe
000001d0: 77fe 8cbf 691d eebf 8767 17c0 89c9 79c0
000001e0: fe79 b2be 69c8 28c0 69e8 3ac0 9ade 9abf
000001f0: 3138 74c0 0188 21c0 13a6 3ac0 c861 06c0
00000200: cb95 e3bb 0ee7 46c0 bfaa c9bf 9ddc 52c0
00000210: 84bd 54be 813f 3fc0 6e57 3fc0 34de 02c0
00000220: de75 3ac0 898a 6b3f 4528 75c0 3863 4bbe
00000230: 2303 253f 36e4 dabf c303 d5bf 3829 66bf
00000240: 7f38 e53f 0c96 18c0 5aba 23bf 6388 b9bf
00000250: 5f65 1bc0 2a2a 53c0 f2de 3dc0 e525 77bf
00000260: 2731 0e3d 65ef b7bf 3d46 ffbd f6d9 3ec0
00000270: 64d2 d2bf 3eb8 423d 1b41 92c0 0e7b 7ac0
00000280: ef2f 85c0 ddc1 0ec0 3d68 ffbf befe e7bf
